weights/save.pth (torch, 250887 bytes, 10 tensors)

conv1.weight f4 [6, 3, 5, 5]
-0.16610047 -0.23252171 -0.10834038 -0.09731856 -0.053503435 -0.36202788 -0.10018283 -0.16129641
-0.09194073 -0.11275174 -0.21555702 -0.24366267 -0.28561395 -0.27692944 -0.35456982 -0.30173954
-0.19752267 -0.27460086 -0.23083459 -0.17983101 -0.16029212 -0.028691715 -0.018931441 -0.02229739
-0.22014181 0.09985649 0.024973225 0.20164576 0.014039942 0.06513737 0.09448087 0.060462426
0.23908234 0.117400065 0.18870966 0.011729503 0.005311649 -0.068505794 -0.068698674 -0.06039824
0.030228294 -0.014549698 0.086986445 0.102628484 0.07176856 0.17331381 0.1836396 -0.024576526
0.061827898 0.09727628 0.16292953 0.16493794 0.18094957 0.17619759 0.1797446 0.15180513
0.29297492 0.13793609 0.16539021 0.06436294 0.17107448 0.16241252 0.17733845 0.1350774
-0.052192222 0.28314003 0.20385769 0.14886352 -0.006724221 0.14158624 0.2908409 0.18586689
0.1157549 -0.045940734 -0.1135297 -0.0035881647 -0.036773965 0.12437073 0.08612065 0.041729487
-0.15632644 -0.34502536 -0.35459313 -0.25877807 -0.15916091 -0.25166202 -0.2635762 -0.1561345
-0.13841768 -0.2465948 -0.016660957 0.21897346 0.26424524 0.2049942 -0.04164239 0.21195605
0.31504765 0.27340755 0.14109147 0.29648712 -0.02856918 -0.08754268 -0.12399511 -0.11739823
-0.09606182 -0.19797394 -0.23975888 -0.18473582 -0.25243112 -0.06381078 -0.17403974 -0.12145956
-0.24669626 -0.23120521 -0.057062812 0.26116815 0.23564374 0.2257927 0.18853614 0.05953275
0.34159452 0.21533011 0.3640726 0.19704427 0.076974235 0.026493313 0.014887675 0.098487936
0.100475535 0.08917773 -0.11073685 0.010038768 -0.18149716 -0.0113735385 -0.048513267 -0.023459796
-0.13925016 -0.18242586 -0.1504444 -0.07988344 0.022100667 0.19668935 0.0665704 0.078982145
0.04768869 0.16531259 0.034509968 0.023269715 0.10925239 0.022095054 0.23120937 0.029944127
0.16246483 0.04185312 0.10455826 0.5024871 0.8241334 0.79084235 0.58458793 0.2680588
-0.063275635 0.061927713 -0.029085048 -0.07590157 -0.18905585 -0.35104242 -0.37397537 -0.41854504
-0.3908813 -0.037867084 -0.09193846 -0.25385892 -0.2837921 -0.19426425 -0.29342467 -0.15736407
-0.30625293 -0.29001933 -0.26983625 -0.19337946 0.26337674 0.46256834 0.5284475 0.2518912
-0.09283245 -0.18306124 -0.18496414 -0.15649948 -0.12609936 -0.24492098 -0.25078604 -0.34900087
-0.47391364 -0.2734695 0.02970152 0.033000052 0.031638727 0.047374323 0.068178624 0.0721802
-0.17646019 -0.11248034 -0.15498383 -0.22735894 -0.06201703 0.14564286 0.4503997 0.3066278
0.2769515 0.14578654 -0.114062645 0.04034218 -0.08607884 -0.10084291 -0.02672772 -0.12836328
-0.1600257 -0.23303428 -0.041851413 0.1524073 0.30016148 0.26103243 0.36457482 0.32404745
0.26295686 -0.074859984 -0.059314743 0.11681723 -0.021981912 -0.04617637 -0.10770446 0.1085942
0.103985265 0.02508799 -0.018668558 0.045053024 0.04265078 0.089644514 0.009233131 0.021854836
-0.023746274 0.12937108 0.13248216 0.097849086 0.043175586 0.026900804 0.058030836 0.09669986
0.08311947 0.14313948 -0.10543542 0.086223796 0.045548346 0.070465274 -0.17384243 -0.005748861
00000000: 3e16 2abe 2c1a 6ebe 90e1 ddbd f44e c7bd
00000010: 6b26 5bbd b85b b9be a82c cdbd e32a 25be
00000020: 6c4b bcbd 62ea e6bd fbba 5cbe b582 79be
00000030: fe3b 92be b2c9 8dbe 2d8a b5be 9b7d 9abe
00000040: 6243 4abe 7c98 8cbe e75f 6cbe 9f25 38be
00000050: 9e23 24be e30a ebbc 1c16 9bbc 04a9 b6bc
00000060: db6c 61be 8f81 cc3d a694 cc3c 3a7c 4e3e
00000070: c907 663c be66 853d 307f c13d 73a7 773d
00000080: 00d2 743e 726f f03d 1b3d 413e 1a2d 403c
00000090: 570d ae3b c44c 8cbd e4b1 8cbd 2564 77bd
000000a0: 54a1 f73c db61 6ebc f325 b23d e22e d23d
000000b0: 65fb 923d 2d79 313e 050c 3c3e b654 c9bc
000000c0: 403f 7d3d c938 c73d 00d7 263e 7ee5 283e
000000d0: d84a 393e 246d 343e f80e 383e ce72 1b3e
000000e0: cf00 963e 1e3f 0d3e 0d5c 293e b8d0 833d
000000f0: 262e 2f3e 784f 263e 3698 353e bb51 0a3e
00000100: 83c7 55bd bbf7 903e 12c0 503e ae6f 183e
00000110: db56 dcbb fcfb 103e 19e9 943e e453 3e3e
00000120: e810 ed3d 5a2c 3cbd 4282 e8bd 6a27 6bbb
00000130: 4ca0 16bd 15b6 fe3d 0660 b03d 8aec 2a3d
00000140: 0a14 20be 2aa7 b0be 3b8d b5be 8f7e 84be
00000150: 14fb 22be d8d9 80be 76f3 86be b9e1 1fbe
00000160: 5dbd 0dbe 5983 7cbe 8f7c 88bc 943a 603e
00000170: 274b 873e 00ea 513e 3691 2abd 020b 593e
00000180: ed4d a13e 13fc 8b3e 487a 103e 29cd 973e
00000190: ea09 eabc 9449 b3bd 26f1 fdbd 7c6e f0bd
000001a0: 0fbc c4bd aeb9 4abe 5a83 75be 632b 3dbe
000001b0: a73e 81be 3aaf 82bd 7937 32be cabf f8bd
000001c0: f29d 7cbe 0fc1 6cbe b2ba 69bd d5b7 853e
000001d0: 984c 713e 3436 673e 9e0f 413e 9dd8 733d
000001e0: 7ae5 ae3e 7f7f 5c3e b967 ba3e f9c5 493e
000001f0: aba4 9d3d 8108 d93c 6feb 733c 0bb4 c93d
00000200: 1ec6 cd3d d0a2 b63d 00ca e2bd a579 243c
00000210: 64da 39be 1458 3abc d9b5 46bd c22e c0bc
00000220: 9897 0ebe d8cd 3abe 190e 1abe ee99 a3bd
00000230: 750c b53c ef68 493e 1056 883d 64c1 a13d
00000240: 3755 433d b447 293e 535a 0d3d 21a0 be3c
00000250: b8bf df3d b000 b53c 26c2 6c3e 634d f53c
00000260: 2e5d 263e 2d6e 2b3d a422 d63d ffa2 003f
00000270: 68fa 523f a574 4a3f 8ea7 153f 013f 893e
00000280: a896 81bd eaa7 7d3d c443 eebc 4872 9bbd
00000290: db97 41be d5bb b3be b379 bfbe 894b d6be
000002a0: 9821 c8be 841a 1bbd 3b4a bcbd ccf9 81be
000002b0: 334d 91be 35ed 46be c23b 96be 0c24 21be
000002c0: 2fcd 9cbe 6a7d 94be fa27 8abe 4405 46be
000002d0: 51d9 863e c2d5 ec3e 5648 073f e2f7 803e
000002e0: f11e bebd 6874 3bbe 3d67 3dbe 6641 20be
000002f0: 3120 01be 91cc 7abe 0767 80be 3eb0 b2be
00000300: cfa4 f2be 3204 8cbe 9a50 f33c 102b 073d
00000310: 9c97 013d 940b 423d 3ca1 8b3d 36d3 933d
00000320: fbb1 34be 185c e6bd 15b4 1ebe c8d0 68be
00000330: 9205 7ebd 6723 153e ca9a e63e 52fe 9c3e
00000340: 96cc 8d3e 1149 153e ad99 e9bd d73d 253d
00000350: 1a4a b0bd ba86 cebd 17f4 dabc aa71 03be
00000360: c7dd 23be 8aa0 6ebe 636c 2bbd a910 1c3e
00000370: c4ae 993e 0ba6 853e 8da9 ba3e 8ce9 a53e
00000380: 48a2 863e 3150 99bd 04f4 72bd df3d ef3d
00000390: 6913 b4bc 6f23 3dbd 2894 dcbd a366 de3d
000003a0: 3af6 d43d 5485 cd3c ceee 98bc 8589 383d
000003b0: 96b2 2e3d 8b97 b73d 8f46 173c ea08 b33c
000003c0: 8c87 c2bc da79 043e 67a9 073e 1a65 c83d
000003d0: e2d8 303d 135f dc3c beb1 6d3d 940a c63d
000003e0: 8a3a aa3d 2893 123e 87ee d7bd 1a96 b03d
000003f0: e790 3a3d 1950 903d c003 32be f160 bcbb

conv1.bias f4 [6]
0.5463594 -0.53312063 -0.4872177 0.121373065 0.33468956 -0.266911
00000000: 36de 0b3f 987a 08bf 9974 f9be 7192 f83d
00000010: 6e5c ab3e 8fa8 88be

conv2.weight f4 [16, 6, 5, 5]
-0.11550061 -0.27970597 -0.15947653 -0.088497035 0.06194266 -0.21107431 -0.2518235 -0.08816841
0.14675467 0.17655864 -0.22444323 -0.21659096 0.047462396 0.089478 0.197282 -0.17236309
-0.11135144 0.026145846 0.019618567 0.14845276 -0.057649314 -0.031094491 0.04291471 0.13445112
0.08667512 -0.16749564 -0.19823791 0.021923404 0.1594227 0.12306275 -0.1498627 -0.14979737
0.0017392774 0.10371969 -0.043607697 -0.09758549 -0.053583056 -0.12614366 -0.04071371 0.029502444
0.019601373 -0.09273914 -0.08001253 -0.116047114 -0.016663292 0.18188034 -0.021775456 0.057185993
-0.01797425 0.045740303 0.026260281 0.14348842 -0.027426846 0.004410266 -0.0032193547 0.073852986
-0.08818212 -0.07282214 0.11238671 0.07075092 0.021937832 -0.1530111 -0.07051665 -0.023622062
-0.008617566 -0.0947195 -0.11067142 -0.09435167 -0.17813244 -0.04603539 -0.15145008 -0.18280217
-0.079918176 -0.12558077 -0.14594378 -0.11787811 -0.1785874 -0.10529141 0.100107685 0.081809565
-0.19942221 -0.18434861 0.032570224 0.02658877 0.13132748 -0.24020769 -0.11582588 0.041663945
0.12092061 0.10212631 -0.20685326 -0.01941586 0.012750785 0.09501723 0.09239258 -0.08756541
0.09683899 0.06333535 0.119871326 0.09303933 -0.26034895 -0.22080263 -0.15866116 0.026137771
0.11734474 -0.3264362 -0.14955272 -0.135986 0.095224716 0.11257797 -0.23014385 -0.19251046
-0.05800262 0.09463181 0.24996951 -0.23377395 -0.13955927 0.031088915 0.10241103 0.22050326
-0.19804202 -0.053424116 -0.0057843043 0.09241021 0.22223502 0.27573314 0.14124563 -0.104704514
-0.1259406 -0.031375036 0.35646367 0.047031738 0.055716556 -0.03227838 -0.16960157 0.35259223
-0.08711152 0.19131549 -0.062134735 -0.029685488 0.08661997 -0.0010055184 0.1883895 -0.01111333
-0.063243434 -0.0962244 0.07943897 0.051980823 -0.12863007 -0.16082264 -9.407047e-05 -0.05623029
0.05230885 -0.0003654733 0.1147322 0.055888187 -0.094363816 -0.0115409745 -0.08121608 0.076235384
-0.07363399 -0.038785893 -0.04990532 -0.03496899 0.06074785 0.09421159 -0.020890849 -0.046575557
0.065145 -0.018309653 0.09160028 0.030659165 0.034496214 0.02705627 0.05455632 -0.020615084
0.0055875876 0.115853235 0.10428628 0.25803912 0.0584961 -0.03590332 0.041357845 0.06402747
0.05446918 -0.045514002 0.03214041 0.05947688 0.04478977 0.0061349818 0.18808737 0.12617421
0.117332645 0.1705295 0.07987938 0.11062158 0.074386664 0.115906805 0.12441968 0.13351032
-0.024722235 -0.021117141 0.009064092 0.019355448 0.13090892 -0.039028063 -0.0510669 -0.08577392
-0.09020436 0.015325277 -0.059495877 -0.1483944 -0.10132632 -0.046627622 0.072375044 0.08925492
-0.010292226 0.006252996 -0.062262658 0.029728316 0.084102295 0.0848158 0.042932533 0.12629808
-0.02826668 -0.0029393022 -0.06806242 -0.124365814 -0.05251677 0.11433671 0.04008402 -0.07644303
-0.12703247 -0.047463942 0.08788324 0.007487454 -0.027334107 0.03038807 0.13372965 0.03352676
0.08344157 0.067732036 0.0047324696 0.0904238 0.065382525 0.17489614 0.18317688 0.03035676
0.045655046 -0.077661514 0.048441105 0.08915834 0.047671255 0.058200356 0.032169454 0.091205195
00000000: 958b ecbd 9f35 8fbe d14d 23be ef3d b5bd
00000010: 96b7 7d3d dd23 58be 03ef 80be a491 b4bd
00000020: db46 163e cacb 343e 72d4 65be 05ca 5dbe
00000030: ee67 423d 3e40 b73d 4b04 4a3e f37f 30be
00000040: 390c e4bd d02f d63c 1eb7 a03c 0004 183e
00000050: b021 6cbd e0b9 febc 56c7 2f3d 8ead 093e
00000060: ba82 b13d fa83 2bbe e1fe 4abe b698 b33c
00000070: b43f 233e 5308 fc3d 9c75 19be 7b64 19be
00000080: 77f8 e33a fd6a d43d fc9d 32bd e7da c7bd
00000090: e879 5bbd ce2b 01be 6bc3 26bd 1caf f13c
000000a0: 0f93 a03c 05ee bdbd 9cdd a3bd 1caa edbd
000000b0: 7581 88bc d73e 3a3e 7162 b2bc dc3b 6a3d
000000c0: bc3e 93bc 2f5a 3b3d cd1f d73c a1ee 123e
000000d0: 44ae e0bc fe83 903b cffb 52bb 3c40 973d
000000e0: d498 b4bd c623 95bd 012b e63d dce5 903d
000000f0: f8b6 b33c f1ae 1cbe 096b 90bd 0e83 c1bc
00000100: b130 0dbc 4cfc c1bd b3a7 e2bd 733b c1bd
00000110: 5a68 36be 9b8f 3cbd bb15 1bbe 7e30 3bbe
00000120: 24ac a3bd 3f98 00be 4972 15be 146a f1bd
00000130: 9edf 36be 06a3 d7bd 4205 cd3d c68b a73d
00000140: 5635 4cbe e2c5 3cbe 5b68 053d b1d0 d93c
00000150: b67a 063e 01f9 75be 1e36 edbd d0a7 2a3d
00000160: 3aa5 f73d 9927 d13d 57d1 53be 020e 9fbc
00000170: abe8 503c 6598 c23d 5238 bd3d 7e55 b3bd
00000180: 8553 c63d f7b5 813d 197f f53d 678b be3d
00000190: 754c 85be 161a 62be 1278 22be e11e d63c
000001a0: 7052 f03d a522 a7be 5924 19be ea3f 0bbe
000001b0: 2d05 c33d 478f e63d d4aa 6bbe 7621 45be
000001c0: 2894 6dbd 53ce c13d 02f8 7f3e 7062 6fbe
000001d0: a0e8 0ebe 2eae fe3c e0bc d13d 9bcb 613e
000001e0: 87cb 4abe 3fd3 5abd 438a bdbb 9041 bd3d
000001f0: 9491 633e e52c 8d3e b2a2 103e 526f d6bd
00000200: 93f6 00be 1c83 00bd 6882 b63e 5aa4 403d
00000210: 0b37 643d 5636 04bd 09ac 2dbe f886 b43e
00000220: 8667 b2bd 35e8 433e fe80 7ebd fb2e f3bc
00000230: d065 b13d 99cb 83ba 2de9 403e af14 36bc
00000240: c685 81bd 4c11 c5bd e6b0 a23d d8e9 543d
00000250: 9ab7 03be b1ae 24be b347 c5b8 bc51 66bd
00000260: ce41 563d ff9c bfb9 b7f8 ea3d 03eb 643d
00000270: d141 c1bd 5b16 3dbc 9e54 a6bd 4c21 9c3d
00000280: 6bcd 96bd f5dd 1ebd 8569 4cbd a53b 0fbd
00000290: bdd2 783d 02f2 c03d 4923 abbc 03c6 3ebd
000002a0: be6a 853d 20fe 95bc ed98 bb3d ee28 fb3c
000002b0: e74b 0d3d 1ca5 dd3c 7376 5f3d f7e0 a8bc
000002c0: 1518 b73b 7644 ed3d 0c94 d53d b41d 843e
000002d0: 9b99 6f3d 5c0f 13bd d866 293d d620 833d
000002e0: 131b 5f3d e46c 3abd aaa5 033d 079e 733d
000002f0: 7a75 373d f507 c93b fa99 403e d033 013e
00000300: 194c f03d 499f 2e3e cd97 a33d 918d e23d
00000310: 0958 983d 8c60 ed3d bfcf fe3d eeb6 083e
00000320: 4986 cabc dbfd acbc 8f81 143c 518f 9e3c
00000330: fd0c 063e e4db 1fbd 872b 51bd 3daa afbd
00000340: 10bd b8bd df16 7b3c f3b1 73bd b4f4 17be
00000350: 2c84 cfbd 9bfc 3ebd 5e39 943d 49cb b63d
00000360: baa0 28bc efe5 cc3b 2107 7fbd cc88 f33c
00000370: d33d ac3d e8b3 ad3d 06da 2f3d 4954 013e
00000380: 868f e7bc 4fa1 40bb 4f64 8bbd 81b3 febd
00000390: d31b 57bd 5d29 ea3d 242f 243d 2a8e 9cbd
000003a0: cd14 02be 8d69 42bd 21fc b33d 5159 f53b
000003b0: c7eb dfbc 67f0 f83c 6df0 083e 5b53 093d
000003c0: 6ae3 aa3d 18b7 8a3d d512 9b3b 1d30 b93d
000003d0: 46e7 853d f917 333e b892 3b3e bdae f83c
000003e0: c900 3b3d 000d 9fbd 2e6a 463d a698 b63d
000003f0: ef42 433d 7f63 6e3d 1ec4 033d cac9 ba3d

conv2.bias f4 [16]
0.28459772 0.28758857 -0.28576097 -0.4380166 -0.22332054 0.46014306 -0.21306628 -0.1978189
-0.043922927 0.37849277 -0.11926996 0.13794975 -0.5012929 0.9224679 0.15080528 -0.0148494765
00000000: cbb6 913e cf3e 933e 434f 92be b643 e0be
00000010: 24ae 64be df97 eb3e 0c2e 5abe 0a91 4abe
00000020: 87e8 33bd cec9 c13e cf43 f4bd b342 0d3e
00000030: bb54 00bf db26 6c3f b36c 1a3e 384b 73bc

fc1.weight f4 [120, 400]
-1.8629473e-05 0.0059871487 -0.009096169 0.021130115 -0.027972218 0.036906395 -0.034896176 0.005384896
0.029454084 -0.033305753 0.038422637 0.006484978 -0.04849957 -0.032037277 -0.04243315 -0.040297776
0.029499901 0.03816182 0.028842214 0.042976946 -0.025491327 0.01087619 0.02900683 -0.042115092
0.007844819 -0.019336956 -0.03135486 -0.013533328 0.016413134 0.012357167 0.014421891 -0.024493756
-0.017761404 -0.03366778 0.01230659 0.014971072 -0.010312811 -0.04184044 -0.04401047 0.017687086
0.030360492 -0.014606219 0.04707933 0.009136368 0.034377832 0.023384407 0.013770286 0.022577606
-0.044820108 -0.0021808995 -0.04750416 0.010118246 0.02548287 -0.047656663 0.0050283624 -0.031656787
0.023361417 -0.02790239 -0.047992676 0.040996175 0.008710834 -0.016164636 -0.0069591445 -0.04381934
0.025296107 -0.044907268 0.015315223 -0.014313144 0.02797685 -0.0082947835 -0.027503176 0.02325172
-0.03649934 -0.031036105 0.0410744 0.03376272 0.03367731 -0.03826983 -0.028531434 -0.010453495
-0.048384044 -0.00031522362 -0.008562662 -0.050400473 0.031325333 -0.021008536 0.023648396 -0.018845174
0.0311354 -0.054341137 -0.050418865 -0.014952077 0.0069745705 -0.028136745 0.012110151 0.023971604
-0.03873987 0.029171314 0.033085395 0.02418916 -0.048378382 -0.013693472 -0.002099242 -0.020477464
0.036247138 -0.03550273 0.01560175 0.03521259 0.037405636 -0.0019896894 -0.008223578 -0.018431941
-0.018815137 -0.019166213 -0.017579047 0.043563332 0.04113035 -0.025801321 -0.018849632 -0.013978496
-0.038905423 -0.034566347 -0.0010559211 -0.030983876 -0.03368622 0.026455572 0.016136331 0.03036815
-0.05074957 -0.0135521395 -0.010618553 -0.041811556 0.0123491725 -0.011393901 -0.020881481 -0.0030038983
0.03532125 0.018367859 0.030714098 0.041254167 0.024924112 -0.039076302 -0.045572225 -0.022155128
0.0016353177 0.028377028 -0.04352978 -0.011700472 0.023382764 -0.044603497 0.015747154 -0.0006543999
-0.020511808 -0.019622352 0.02659062 0.022380775 0.017583665 -0.00057196675 -0.0012070021 -0.035494406
-0.00642747 0.046409044 -0.03911808 -0.00053621276 -0.0012606245 0.010897332 0.020448558 -0.027920105
0.0057644593 -0.0059050918 -0.029458564 0.026652057 -0.03428438 -0.017819693 0.0011848649 -0.050640594
0.03658811 0.029103892 0.03221582 -0.031673286 -0.015873624 0.029638223 0.034899432 -0.023983452
0.012629056 -0.041903738 -0.01810504 0.026007665 0.0260176 -0.024567565 -0.025501305 -0.050401222
0.034441136 -0.038346875 0.0007835076 -0.023765428 0.010327536 0.01480218 0.031549167 -0.02569827
0.039973453 0.049906276 -0.0357391 -7.4821564e-06 0.018114405 0.026701804 -0.0059467247 0.022128789
0.013111847 0.03632889 -0.0066824257 -0.009053611 -0.033786446 -0.011071165 -0.009813325 0.03495568
0.0020686183 -0.041903593 0.040359866 -0.049419656 -0.046386093 0.003198205 0.036761604 0.03321406
-0.025184568 -0.0054556816 -0.009346886 -0.009273962 0.03848419 -0.04088354 0.02925121 -0.013252745
-0.01137646 -0.045032606 -0.021011746 -0.015564527 0.014266638 0.002210618 -0.03695806 -0.015263549
0.03141913 -0.035695393 0.030847326 0.0047883084 -0.039400354 0.007930682 0.032492794 0.001909705
-0.040053062 0.035206452 -0.02913859 0.010467668 -0.022084767 -0.043204773 0.028877342 -0.0077292975
00000000: 7d46 9cb7 d82f c43b 1908 15bc 1019 ad3c
00000010: fe25 e5bc 292b 173d 4bef 0ebd c873 b03b
00000020: b149 f13c 9d6b 08bd 0e61 1d3d f07f d43b
00000030: 7ca7 46bd 8539 03bd 62ce 2dbd 480f 25bd
00000040: c7a9 f13c 924f 1c3d 8246 ec3c 9808 303d
00000050: 30d3 d0bc 0c32 323c bb9f ed3c e080 2cbd
00000060: 8e87 003c 8968 9ebc f46d 00bd e4ba 5dbc
00000070: d674 863c b775 4a3c cc49 6c3c 21a7 c8bc
00000080: 5d80 91bc 3ae7 09bd 94a1 493c 3a49 753c
00000090: 10f7 28bc e260 2bbd 5344 34bd 82e4 903c
000000a0: 91b6 f83c ec4e 6fbc 41d6 403d b4b0 153c
000000b0: c5cf 0c3d a890 bf3c c49c 613c acf4 b83c
000000c0: 4a95 37bd 6ced 0ebb b993 42bd 00c7 253c
000000d0: 74c1 d03c a233 43bd f6c4 a43b 8caa 01bd
000000e0: 7160 bf3c 8e93 e4bc f893 44bd 9beb 273d
000000f0: e3b7 0e3c b36b 84bc 8909 e4bb e97b 33bd
00000100: c839 cf3c aff0 37bd b3ec 7a3c ad81 6abc
00000110: b52f e53c d8e6 07bc 574e e1bc 647a be3c
00000120: 5580 15bd 6e3f febc a13d 283d c74a 0a3d
00000130: 38f1 093d d3c0 1cbd c1ba e9bc 2345 2bbc
00000140: 592e 46bd 9944 a5b9 684a 0cbc ba70 4ebd
00000150: fe4e 003d 181a acbc 48ba c13c 3261 9abc
00000160: ab0f ff3c d094 5ebd 0384 4ebd 8ef9 74bc
00000170: f08a e43b 087f e6bc a869 463c 1960 c43c
00000180: b3ad 1ebd aef8 ee3c 8d84 073d 5828 c63c
00000190: 6928 46bd 965a 60bc 7093 09bb 5bc0 a7bc
000001a0: e177 143d 506b 11bd 7c9e 7f3c 143b 103d
000001b0: a736 193d 7365 02bb 30bc 06bc 95fe 96bc
000001c0: 3422 9abc 7602 9dbc ef01 90bc 776f 323d
000001d0: 4c78 283d 4b5d d3bc 8b6a 9abc 1006 65bc
000001e0: 4b5b 1fbd 7195 0dbd d566 8aba e6d1 fdbc
000001f0: 90fa 09bd 5bb9 d83c 5730 843c a0c6 f83c
00000200: c8de 4fbd cb09 5ebc 70f9 2dbc 9842 2bbd
00000210: 2f54 4a3c 7cad 3abc a40f abbc 0ddd 44bb
00000220: 04ad 103d 3178 963c 229c fb3c 21fa 283d
00000230: a72d cc3c 790e 20bd f1a9 3abd ac7e b5bc
00000240: 2858 d63a f176 e83c 484c 32bd 56b3 3fbc
00000250: 368d bf3c 28b2 36bd 2d00 813c 098c 2bba
00000260: 6108 a8bc 0ebf a0bc 92d4 d93c e357 b73c
00000270: 9e0b 903c 0af0 15ba 4534 9eba 9562 11bd
00000280: 879d d2bb 6917 3e3d 483a 20bd a190 0cba
00000290: 8a3b a5ba b98a 323c bc83 a73c b4b8 e4bc
000002a0: cae3 bc3b 807f c1bb 1653 f1bc 6a55 da3c
000002b0: c76d 0cbd 9bfa 91bc 784d 9b3a 836c 4fbd
000002c0: 6add 153d 496b ee3c bcf4 033d d9bb 01bd
000002d0: 6709 82bc dccb f23c b5f2 0e3d f278 c4bc
000002e0: 1aea 4e3c 41a3 2bbd 0551 94bc 070e d53c
000002f0: dd22 d53c eb41 c9bc 1de8 d0bc 8371 4ebd
00000300: 2612 0d3d 9d11 1dbd 4e64 4d3a b7af c2bc
00000310: d334 293c d884 723c b339 013d 2e85 d2bc
00000320: 34bb 233d 866a 4c3d 2a63 12bd 3c0f fbb6
00000330: a964 943c bebd da3c bedc c2bb 6f47 b53c
00000340: 13d3 563c 9acd 143d 40f8 dabb 9955 14bc
00000350: a863 0abd d563 35bc 11c8 20bc b02d 0f3d
00000360: a891 073b 1aa3 2bbd 6350 253d 446c 4abd
00000370: 58ff 3dbd fa98 513b 5693 163d 770b 083d
00000380: de4f cebc 93c5 b2bb ae23 19bc d1f1 17bc
00000390: 99a1 1d3d 8075 27bd 3ca0 ef3c 0b22 59bc
000003a0: 5564 3abc 1c74 38bd d320 acbc 5c02 7fbc
000003b0: 9ebe 693c 04e0 103b 5661 17bd f713 7abc
000003c0: 58b1 003d 5535 12bd 88b3 fc3c 3ee7 9c3b
000003d0: 4462 21bd b1ef 013c 2a17 053d 114f fa3a
000003e0: ae0e 24bd a434 103d 0db4 eebc 9580 2b3c
000003f0: 1deb b4bc 7df7 30bd 2d90 ec3c 0c46 fdbb

fc1.bias f4 [120]
-0.02695301 -0.0157376 0.072624244 0.030597128 0.15930402 -0.008029578 -0.14025746 -0.05557765
-0.03590616 -0.14975138 -0.04849443 -0.03246233 0.07536543 0.08063227 -0.02181169 -0.043522406
0.058660306 -0.07355265 -0.033218272 0.07242572 -0.047298588 -0.0075338176 0.03312169 -0.18034117
0.0070279846 0.024445402 0.16966495 0.047317095 -0.024958719 0.083883956 0.068420336 -0.031520195
0.0013655864 0.15875204 0.057199076 0.10068267 0.05233517 -0.085618414 -0.05761166 -0.040054806
-0.009768516 0.046237152 0.040840805 0.1363521 -0.01766038 0.011097268 0.06273758 -0.021825107
-0.040860467 0.011510947 0.008594181 0.14605728 0.050749145 0.010068354 -0.015935183 0.0119718285
-0.1299027 0.009680779 0.07382758 -0.068989396 0.107182816 0.0031779595 0.074211374 -0.025042197
0.14060242 0.053332835 0.05130903 -0.0016729493 0.021045683 0.00766365 0.04416094 0.09543213
-0.09167706 0.00093250757 -0.0056396956 0.33355075 0.03546723 -0.0055733374 -0.06077352 -0.0348959
-0.052138995 0.20923881 -0.066951945 0.14973353 0.010863713 0.0374156 0.004206802 -0.028293539
0.033802304 -0.02764272 0.18638921 0.017746918 0.006139236 0.075255066 0.088381335 0.01879758
0.021907981 0.011973499 -0.013875148 -0.072553545 -0.07191285 0.13428019 0.031738263 -0.064975224
0.0031727762 0.12110729 0.2422748 -0.06873993 0.08840261 0.11649417 -0.008386959 -0.036615856
-0.057106253 0.11528199 -0.014527898 0.036224607 0.018918334 -0.011025316 -0.039003104 -0.0046519013
00000000: 8fcc dcbc 24ec 80bc 05bc 943d d4a6 fa3c
00000010: 9820 233e 7e8e 03bc a79f 0fbe 64a5 63bd
00000020: 5612 13bd 6d58 19be 18a2 46bd 38f7 04bd
00000030: 3159 9a3d 8822 a53d 6eae b2bc 8d44 32bd
00000040: ca45 703d c6a2 96bd e20f 08bd f053 943d
00000050: 2abc 41bd 3ede f6bb 9caa 073d 5bab 38be
00000060: 024b e63b b941 c83c a6bc 2d3e 92cf 413d
00000070: 3a76 ccbc 5acb ab3d f61f 8c3d 521b 01bd
00000080: 7afd b23a e58f 223e 9449 6a3d b732 ce3d
00000090: 675d 563d b558 afbd 34fa 6bbd 8210 24bd
000000a0: 200c 20bc 2b63 3d3d b048 273d e39f 0b3e
000000b0: 80ac 90bc 51d1 353c 8f7c 803d 91ca b2bc
000000c0: 4e5d 27bd 6998 3c3c 9cce 0c3c 0a90 153e
000000d0: 56de 4f3d bdf5 243c 808a 82bc 7d25 443c
000000e0: 3705 05be 219c 1e3c ea32 973d 504a 8dbd
000000f0: aa82 db3d 5045 503b 22fc 973d 4b25 cdbc
00000100: 15fa 0f3e 8873 5a3d 6b29 523d dd46 dbba
00000110: ff67 ac3c 5b1f fb3b 1ae2 343d ec71 c33d
00000120: 2fc1 bbbd 8673 743a 32cd b8bb 2ac7 aa3e
00000130: 1646 113d 8ba0 b6bb a8ed 78bd 01ef 0ebd
00000140: b38f 55bd b342 563e 1a1e 89bd bf53 193e
00000150: b7fd 313c 1a41 193d 37d9 893b dac7 e7bc
00000160: 4974 0a3d fc72 e2bc d0dc 3e3e fc61 913c
00000170: a52b c93b 541f 9a3d 4601 b53d 62fd 993c
00000180: 5e78 b33c 7f2c 443c 9754 63bc f496 94bd
00000190: 0b47 93bd bf80 093e fbff 013d bb11 85bd
000001a0: 5aee 4f3b 1907 f83d e316 783e 85c7 8cbd
000001b0: 6d0c b53d 7f94 ee3d 7569 09bc 82fa 15bd
000001c0: 3fe8 69bd f718 ec3d 6c06 6ebc 4160 143d
000001d0: 9ffa 9a3c 87a3 34bc b8c1 1fbd fa6e 98bb

fc2.weight f4 [84, 120]
-0.033784337 0.0074265585 0.055605665 -0.025994344 0.034543302 -0.03978141 0.0008839794 0.06188351
0.00028596705 -0.08398077 0.0370436 0.013785109 0.029722588 -0.0852585 0.006432102 0.003953743
-0.06242729 -0.003849369 -0.10469749 -0.025432184 -0.02151251 0.06864269 0.044941112 0.023691013
0.010868084 0.06593407 0.080342695 -0.067401215 -0.007786416 0.083563626 -0.09892236 0.06508157
-0.050968934 -0.028872326 -0.082322426 -0.010360431 -0.045891915 -0.031201186 0.018525159 0.07122867
-0.08588979 0.016118962 0.017768404 -0.0817555 -0.012069305 -0.0016906273 0.011704221 -0.02695835
0.03742399 0.04518336 -0.017869921 -0.037198745 -0.055598233 -0.010270292 -0.07330037 -0.028906811
-0.07886425 0.029913964 -0.0052198377 0.038341857 0.068450436 -0.087760866 -0.032165803 -0.059323512
-0.043850306 -0.10307414 0.04725053 0.062943265 0.026441395 -0.07338449 -0.04073681 -0.03228191
-0.023044197 0.0017878944 0.060103945 -0.023803726 0.04684376 0.00031589295 -0.014191806 0.055892646
-0.06277208 -0.043499045 0.000852695 -0.091400586 0.029729662 -0.08445059 0.06931851 -0.05359846
0.037207454 0.064808056 0.0013300569 -0.004235375 0.055713426 0.020730283 -0.063135885 0.04154579
-0.037548933 -0.017453061 0.039588317 -0.053940542 -0.03489579 0.013949274 0.077224344 -0.057194356
-0.06830134 0.009122014 -0.097011745 -0.0055237715 0.037030406 -0.023325602 -0.059746027 -0.015136778
0.028059784 -0.0977973 -0.08657262 0.01750794 -0.08728848 0.06718286 0.038287036 0.07029198
-0.07932176 -0.0025520101 -0.123690955 -0.06688226 -0.013151866 0.0826182 0.08229313 -0.08783696
0.051891882 0.015610632 -0.071965925 -0.031588115 -0.11998515 -0.06642172 0.019551923 -0.014398429
0.0063008745 0.02152087 -0.028998172 -0.10302697 -0.046625417 0.07574338 0.10294256 0.035239946
0.030760812 -0.0918628 0.038560335 -0.054333918 -0.024242582 0.07706448 -0.074172825 -0.023977334
-0.019262094 0.023619955 -0.040571567 0.027296418 -0.0056748157 0.10092295 -0.046704233 0.13355012
-0.0075713713 0.01990273 -0.038160354 0.07201628 0.03630092 0.037428703 -0.10144626 -0.010371759
0.06507384 -0.03858219 -0.08115336 -0.10140513 0.06489259 0.06125485 -0.06738074 0.07634479
-0.1483789 0.1192488 -0.06270681 -0.10642383 -0.021703728 -0.0011785298 0.035612117 0.073158644
-0.12344151 0.058005054 -0.004632723 0.067946665 0.05732073 0.05453381 0.054784812 0.06149126
-0.012964074 -0.04899101 0.08026124 0.022001408 0.0052776095 -0.027349424 -0.004841893 0.05327928
0.055244446 -0.022986613 -0.077971555 -0.0066615315 -0.0059850514 -0.07738665 0.04453125 0.06935729
-0.05652859 -0.013434849 -0.12346127 0.10214236 0.06522385 -0.1250287 0.06698306 -0.05422721
-0.14627567 -0.018982574 0.013760235 0.0046658046 0.11333192 0.011401942 -0.13228798 0.048289612
-0.088835746 0.006661515 -0.11974322 -0.005811941 -0.11423091 0.05122391 0.0068597747 -0.039572816
-0.080740586 -0.043334175 -0.07314837 -0.028242858 0.017082967 -0.038310107 0.034732845 -0.09023786
-0.06885312 -0.039421733 0.032660626 -0.057045046 -0.040357053 0.081607744 0.01201314 0.0672765
-0.034146074 0.057127267 -0.004562604 0.016735673 0.0791155 -0.043320112 0.06596709 0.009005545
00000000: 7261 0abd 7d5a f33b c4c2 633d 17f2 d4bc
00000010: 477d 0d3d d5f1 22bd daba 673a 9079 7d3d
00000020: d9ed 9539 1cfe abbd 08bb 173d f0da 613c
00000030: c97c f33c 029c aebd 62c4 d23b 668e 813b
00000040: c2b3 7fbd b245 7cbb a36b d6bd 2857 d0bc
00000050: 013b b0bc 8a94 8c3d 2c14 383d a813 c23c
00000060: 0c10 323c 7108 873d b68a a43d a609 8abd
00000070: 3125 ffbb 6823 ab3d ce97 cabd 7c49 853d
00000080: cdc4 50bd a885 ecbc a998 a8bd ccbe 29bc
00000090: 29f9 3bbd a199 ffbc 13c2 973c 56e0 913d
000000a0: fce6 afbd ea0b 843c 0b8f 913c 6d6f a7bd
000000b0: 56be 45bc 0a98 ddba 10c3 3f3c c2d7 dcbc
000000c0: e649 193d 3012 393d f163 92bc b65d 18bd
000000d0: f9ba 63bd ba44 28bc 811e 96bd facd ecbc
000000e0: 9483 a1bd 210e f53c 2c0b abbb 5a0c 1d3d
000000f0: be2f 8c3d f8bb b3bd 4ac0 03bd 36fd 72bd
00000100: 619c 33bd 8918 d3bd c689 413d 66e8 803d
00000110: a09b d83c 9c4a 96bd a4db 26bd 093a 04bd
00000120: 2fc7 bcbc c857 ea3a 8e2f 763d 0800 c3bc
00000130: 3edf 3f3d 6f9e a539 c084 68bc b0ef 643d
00000140: a68e 80bd 0e2c 32bd 6587 5f3a 3b30 bbbd
00000150: 9f8b f33c 6ef4 acbd ddf6 8d3d 0f8a 5bbd
00000160: d866 183d 16ba 843d 4e55 ae3a e7c8 8abb
00000170: c333 643d 8ed2 a93c 634d 81bd eb2b 2a3d
00000180: e9cc 19bd b9f9 8ebc 5c27 223d c2f0 5cbd
00000190: e3ee 0ebd 7f8b 643c cc27 9e3d a144 6abd
000001a0: 93e1 8bbd 8074 153c 18ae c6bd c100 b5bb
000001b0: 32ad 173d 5515 bfbc 40b8 74bd 4000 78bc
000001c0: a2dd e53c f349 c8bd fc4c b1bd d06c 8f3c
000001d0: 4dc4 b2bd 2b97 893d ded2 1c3d 3ef5 8f3d
000001e0: 7273 a2bd a03f 27bb af51 fdbd 91f9 88bd
000001f0: ed7a 57bc bb33 a93d 4d89 a83d dde3 b3bd
00000200: 958c 543d bcc3 7f3c df62 93bd 8a62 01bd
00000210: c6ba f5bd 1c08 88bd 5b2b a03c 63e7 6bbc
00000220: 9177 ce3b 894c b03c 938d edbc ceff d2bd
00000230: 4bfa 3ebd 581f 9b3d 8dd3 d23d c357 103d
00000240: 19fe fb3c 9022 bcbd 71f1 1d3d 3e8d 5ebd
00000250: 6198 c6bc fbd3 9d3d ece7 97bd 1d6c c4bc
00000260: 8acb 9dbc a37e c13c 5f2e 26bd bd9c df3c
00000270: cef3 b9bb b1b0 ce3d f04c 3fbd 5dc1 083e
00000280: 4419 f8bb 0d0b a33c 084e 1cbd 457d 933d
00000290: 46b0 143d d74e 193d 0fc3 cfbd 4fee 29bc
000002a0: 6f45 853d 5c08 1ebd bc33 a6bd 7ead cfbd
000002b0: 68e6 843d 5ee6 7a3d eafe 89bd a85a 9c3d
000002c0: a3f0 17be b738 f43d 6e6c 80bd bdf4 d9bd
000002d0: 04cc b1bc e678 9aba 03de 113d 33d4 953d
000002e0: e7ce fcbd b596 6d3d 19ce 97bb 9f27 8b3d
000002f0: 24c9 6a3d d85e 5f3d 0a66 603d 42de 7b3d
00000300: 4467 54bc ccaa 48bd 0160 a43d 4c3c b43c
00000310: ccef ac3b e60b e0bc bea8 9ebb 603b 5a3d
00000320: 0048 623d 6c4e bcbc 8daf 9fbd fa48 dabb
00000330: 401e c4bb e47c 9ebd 6666 363d 320b 8e3d
00000340: 868a 67bd d71d 5cbc 43d9 fcbd 0330 d13d
00000350: 1594 853d 8607 00be 6a2e 893d 5a1d 5ebd
00000360: 4ac9 15be 5881 9bbc 9c72 613c 9be3 983b
00000370: 911a e83d 36cf 3a3c 8076 07be 54cb 453d
00000380: 84ef b5bd d748 da3b ef3b f5bd 1872 bebb
00000390: e5f1 e9bd 2ad0 513d f6c7 e03b 1b17 22bd
000003a0: 525b a5bd 2d7f 31bd d0ce 95bd 915d e7bc
000003b0: 94f1 8b3c 0feb 1cbd 0744 0e3d a1ce b8bd
000003c0: dd02 8dbd af78 21bd 26c7 053d 11a8 69bd
000003d0: 704d 25bd f621 a73d c3d2 443c 43c8 893d
000003e0: c1dc 0bbd 48fe 693d e581 95bb 4019 893c
000003f0: 4f07 a23d 6e70 31bd c119 873d fe8b 133c

fc2.bias f4 [84]
-0.051085457 0.046777558 -0.053979263 0.24493709 0.042056274 -0.030041778 -0.07497656 0.07643062
0.07957964 -0.11944033 -0.084531724 -0.042701278 0.1167098 0.037405226 0.1812326 -0.049051363
0.20577946 -0.026379257 -0.035161316 0.21295542 0.04053794 -0.040748022 0.07120077 -0.10127728
0.06843311 -0.014775497 -0.053765174 0.041972805 0.22402734 0.25807846 -0.06973651 -0.058880318
-0.03367686 -0.059945993 0.06964896 -0.05442874 0.1371834 0.13128792 -0.061303157 0.2078463
-0.06687374 -0.05081817 -0.023737365 0.16765156 0.27428842 -0.09096495 -0.08312674 0.365919
0.0013076736 -0.0077531044 -0.10849179 0.12042292 0.22253019 0.32855535 0.23425752 0.09096364
-0.0006275598 0.15335529 -0.00040641706 0.084206074 0.113069184 0.13698094 0.104634896 0.2965665
0.025142351 0.08104379 0.2286455 0.048362184 -0.0657496 0.13324326 0.0021915988 0.12376747
-0.046598952 0.04704402 0.24572498 -0.04960401 0.1602645 0.06712778 0.31174695 0.107870564
0.023235496 0.21716411 0.041650064 0.40879127
00000000: fc3e 51bd d399 3f3d 5c19 5dbd cad0 7a3e
00000010: 3343 2c3d 2d1a f6bc 508d 99bd a887 9c3d
00000020: a6fa a23d 229d f4bd f81e adbd 89e7 2ebd
00000030: 8c05 ef3d 3936 193d 0a95 393e 15ea 48bd
00000040: dab7 523e 5019 d8bc 5005 10bd fc10 5a3e
00000050: 1c0b 263d 66e7 26bd b6d1 913d 766a cfbd
00000060: a926 8c3d ed14 72bc df38 5cbd adeb 2b3d
00000070: 6c67 653e dc22 843e 04d2 8ebd 7d2c 71bd
00000080: bff0 09bd ee89 75bd 1da4 8e3d acf0 5ebd
00000090: ce79 0c3e 5770 063e 0519 7bbd a9d5 543e
000000a0: 19f5 88bd b726 50bd dd74 c2bc daac 2b3e
000000b0: 886f 8c3e d54b babd 5a3e aabd bc59 bb3e
000000c0: 3f66 ab3a c10d febb f230 debd 4ba0 f63d
000000d0: f4de 633e 6838 a83e 34e1 6f3e 254b ba3d
000000e0: d382 24ba 2b09 1d3e 6014 d5b9 3c74 ac3d
000000f0: d190 e73d bb44 0c3e d24a d63d 90d7 973e
00000100: 55f7 cd3c 49fa a53d 0c22 6a3e 6d17 463d
00000110: baa7 86bd ec70 083e eda0 0f3b cd79 fd3d
00000120: 8bde 3ebd 3bb1 403d 549f 7b3e 932d 4bbd
00000130: 611c 243e 4a7a 893d 4c9d 9f3e 3eeb dc3d
00000140: 5e58 be3c 4560 5e3e 4299 2a3d 174d d13e

fc3.weight f4 [10, 84]
0.047068313 -0.11354189 0.0052824044 0.133052 -0.13088599 0.08895841 0.0067068804 0.054054108
0.12043743 0.053564966 -0.0288572 0.10900348 -0.03403421 0.039549228 0.059435543 0.07142213
-0.011328113 -0.021109423 -0.035528008 -0.072866246 -0.13011274 0.10858233 -0.18272023 -0.038392298
0.11086502 -0.06544668 0.0070432154 -0.095284596 0.09049824 -0.20594199 -0.026264992 0.09665401
-0.19928169 0.08878034 0.132776 -0.047458183 -0.095879905 -0.10833284 -0.07823011 0.09458643
-0.033106904 -0.058989413 -0.037208278 -0.20215689 0.035343777 0.21197595 0.026966613 -0.10662103
0.22761512 -0.06899375 -0.024458762 0.19577385 0.10872435 -0.24026525 0.14542502 0.07109524
0.11672271 0.018223332 0.27797335 0.07611878 -0.07992238 0.04244286 0.036328964 -0.12063384
-0.082358435 0.03758306 0.15300982 0.21206151 0.25183547 0.16343458 0.14396772 -0.1597316
0.08947569 0.1252111 0.0022601467 0.043415423 0.07526732 -0.008563201 -0.25621974 0.29715824
0.010767964 -0.08922274 -0.0035135846 -0.18187809 0.05872457 0.18757741 -0.07309514 -0.24223213
0.3416257 0.09406633 -0.005830979 0.28406256 0.013882896 -0.12195299 0.046783213 0.010911712
0.009618085 -0.17259882 0.078922935 0.10730231 0.17201054 0.09870174 0.029656304 0.04376981
-0.16393375 0.173589 -0.034111872 -0.12599744 0.17395027 0.18551351 0.08749638 0.017739274
-0.2138842 -0.096795395 0.09274903 -0.021940365 0.019468775 0.03183246 -0.101413846 0.11211645
0.002313782 -0.2275456 0.089144476 0.14608978 -0.10664856 0.017421365 -0.102600306 -0.15122482
-0.27283913 -0.13882561 -0.11128633 -0.18548268 0.21733588 0.008804751 0.2148638 0.20009632
0.12007289 -0.09735351 -0.23271415 0.23333041 0.042640556 -0.022790534 0.1416639 0.39128798
-0.13122556 -0.022931732 -0.076456465 -0.3462068 -0.03193928 -0.1419062 -0.15126099 0.1688489
0.21896914 -0.060667768 0.032615386 0.0017124427 -0.11238588 -0.036586147 -0.17146373 0.07218052
-0.1720291 -0.029491477 -0.07484399 -0.20427197 -0.020124136 -0.0151723195 0.08962951 -0.3191288
0.08286768 -0.10404412 0.12362895 0.20848584 -0.14555247 0.0073302123 0.09059214 -0.23091388
-0.051468134 0.08730298 -0.037880797 0.024935253 0.04058558 0.12876111 0.023831313 0.05218105
-0.13516614 -0.02211816 -0.035672203 0.0047212658 0.014803149 0.12121315 -0.21114892 -0.053238858
-0.16010766 0.047535546 -0.055532027 -0.050199248 0.22513293 -0.11253248 0.011867365 0.2024018
-0.17591423 0.065660305 0.018668678 -0.09725558 0.19211999 0.014002016 -0.023954285 0.059412077
0.056914825 -0.048343793 -0.06159417 -0.030290475 0.27281076 0.16730429 -0.048176475 0.11348224
-0.00941045 0.115670644 0.13751914 -0.18387902 0.094236284 0.20399304 0.05620367 0.034023903
0.021985935 0.102725916 0.03644528 -0.15684828 -0.02201802 -0.02131044 0.051742442 0.17156707
0.18814717 -0.048142787 0.19048166 0.117357165 -0.049438544 0.034986887 -0.040915173 -0.02315541
-0.14282101 0.083982065 0.20218326 -0.06024028 0.15520401 -0.05418072 0.11675207 -0.04282806
-0.054082695 -0.122482486 0.004550994 0.11186598 -0.0001895032 -0.122930765 0.04408091 0.0291949
00000000: b4ca 403d a788 e8bd 0518 ad3b c93e 083e
00000010: fa06 06be d42f b63d 64c5 db3b d767 5d3d
00000020: e6a7 f63d f066 5b3d ef65 ecbc 373d df3d
00000030: 7567 0bbd 5ffe 213d af72 733d c445 923d
00000040: 8d99 39bc abed acbc d185 11bd e63a 95bd
00000050: 463c 05be 6a60 de3d 031b 3bbe 3e41 1dbd
00000060: 330d e33d e908 86bd c6ca e63b 9224 c3bd
00000070: 2457 b93d 75e2 52be ae29 d7bc 8af2 c53d
00000080: 8010 4cbe 78d2 b53d 6ff6 073e 8363 42bd
00000090: af5c c4bd 9cdd ddbd 1c37 a0bd 88b6 c13d
000000a0: 1b9b 07bd e29e 71bd b567 18bd 3702 4fbe
000000b0: a3c4 103d 3910 593e 16e9 dc3c 205c dabd
000000c0: f013 693e 984c 8dbd be5d c8bc f178 483e
000000d0: dfaa de3d 1808 76be 4cea 143e 629a 913d
000000e0: 510c ef3d 1949 953c 8652 8e3e 2ae4 9b3d
000000f0: 58ae a3bd 90d8 2d3d aecd 143d e00e f7bd
00000100: 8aab a8bd b2f0 193d 9bae 1c3e a726 593e
00000110: 94f0 803e 655b 273e 466c 133e ae90 23be
00000120: 083f b73d 5737 003e f81e 143b 5fd4 313d
00000130: c125 9a3d ab4c 0cbc 3c2f 83be 2025 983e
00000140: 1d6c 303c 69ba b6bd 2b44 66bb 403e 3abe
00000150: 2d89 703d 4b14 403e e8b2 95bd b30b 78be
00000160: 90e9 ae3e d9a5 c03d cc11 bfbb a670 913e
00000170: 1675 633c 7dc2 f9bd c19f 3f3d 0ac7 323c
00000180: 2c95 1d3c bfbd 30be 59a2 a13d 50c1 db3d
00000190: 8823 303e 2324 ca3d c7f1 f23c f947 333d
000001a0: 40de 27be 51c1 313e e4b8 0bbd 7905 01be
000001b0: 0520 323e 41f7 3d3e 4d31 b33d f451 913c
000001c0: 7604 5bbe aa3c c6bd 34f3 bd3d 48bc b3bc
000001d0: fb7c 9f3c c162 023d 10b2 cfbd 4f9d e53d
000001e0: d2a2 173b b701 69be 6191 b63d 8f98 153e
000001f0: 8f6a dabd 40b7 8e3c 1c20 d2bd aeda 1abe
00000200: 92b1 8bbe 4d28 0ebe 16ea e3bd 2cef 3dbe
00000210: 4c8d 5e3e cd41 103c 4205 5c3e 0de6 4c3e
00000220: c6e8 f53d 4761 c7bd 9e4c 6ebe 2bee 6e3e
00000230: dda7 2e3d 37b3 babc 5710 113e e656 c83e
00000240: fe5f 06be 54db bbbc 3595 9cbd 0542 b1be
00000250: c3d2 02bd dc4f 11be 29e4 1abe bae6 2c3e
00000260: 7239 603e c47e 78bd b697 053d 0b74 e03a
00000270: 912a e6bd 5bdb 15bd 3094 2fbe 61d3 933d
00000280: 6528 30be 1c98 f1bc ce47 99bd ac2c 51be
00000290: 5fdb a4bc 5295 78bc ad8f b73d da64 a3be
000002a0: 88b6 a93d 1515 d5bd 2d31 fd3d 507d 553e
000002b0: b50b 15be 4732 f03b 5f88 b93d b074 6cbe
000002c0: 40d0 52bd e8cb b23d e528 1bbd 0445 cc3c
000002d0: 113d 263d f4d9 033e e339 c33c ccbb 553d
000002e0: fe68 0abe 2531 b5bc 041d 12bd d9b4 9a3b
000002f0: e888 723c 9a3e f83d 6c37 58be fd10 5abd
00000300: 43f3 23be a2b4 423d 8d75 63bd ba9d 4dbd
00000310: 3f89 663e 6e77 e6bd 566f 423c 6b42 4f3e
00000320: dc22 34be e978 863d 0eef 983c ef2d c7bd
00000330: 1abb 443e b668 653c c73b c4bc 145a 733d
00000340: 851f 693d 2404 46bd 2b4a 7cbd bb23 f8bc
00000350: daad 8b3e d151 2b3e b254 45bd 6069 e83d
00000360: 4a2e 1abc bbe4 ec3d d1d1 0c3e c84a 3cbe
00000370: f4fe c03d 8de3 503e d235 663d a65c 0b3d
00000380: d91b b43c f761 d23d a547 153d d69c 20be
00000390: 225f b4bc 3b93 aebc e2ef 533d 47af 2f3e
000003a0: a7a9 403e 5f31 45bd a00d 433e f458 f03d
000003b0: 1280 4abd 694e 0f3d ab96 27bd 6ab0 bdbc
000003c0: ac3f 12be cafe ab3d 2109 4f3e 83be 76bd
000003d0: cded 1e3e 9aec 5dbd b61b ef3d 7a6c 2fbd
000003e0: d185 5dbd 19d8 fabd 8120 953b fe19 e53d
000003f0: 61b5 46b9 20c3 fbbd 2f8e 343d 252a ef3c

fc3.bias f4 [10]
-0.3411888 -0.31755328 0.013771481 0.38801795 0.49325323 -0.07056817 0.06409922 -0.18576513
0.22873454 -0.31877205
00000000: 4cb0 aebe 5896 a2be c7a1 613c 4aaa c63e
00000010: b08b fc3e 0b86 90bd 7446 833d 3739 3ebe
00000020: 6339 6a3e 1736 a3be
